D1_Swiss_model.pth (torch, 4463 bytes, 8 tensors)

encoder.0.weight f4 [2, 4]
0	0xbe5a537b	-0.21320908
1	0xbdce033b	-0.1005921
2	0xbea78468	-0.32718205
3	0x3e9964bb	0.29959664
4	0x3e8f8920	0.28034306
5	0x3de7e04a	0.113220766
6	0xbe230eec	-0.15923661
7	0xbecf5b4f	-0.4049935

encoder.0.bias f4 [2]
0	0xbdc2c25a	-0.09509726
1	0x3d41cca6	0.04731431

encoder.2.weight f4 [4, 2]
0	0x3ebc136c	0.36733568
1	0x3e21487f	0.15750311
2	0xbe41367d	-0.18868442
3	0x3edc2320	0.42995548
4	0xbe164ca2	-0.1467767
5	0x3ecffe43	0.40623674
6	0x3d8a9901	0.067674644
7	0x3ed83ec6	0.42235392

encoder.2.bias f4 [4]
0	0xbea834c6	-0.32852763
1	0xbead37de	-0.33831686
2	0x3ee0df47	0.43920347
3	0x3f131933	0.57460326

decoder.0.weight f4 [2, 4]
0	0x3ea232cc	0.3167938
1	0xbe333610	-0.17501092
2	0xbe0b2186	-0.13587007
3	0x3dc5d6a1	0.09660078
4	0xbecf80f2	-0.40528065
5	0xbe2ea05b	-0.17053358
6	0x3dbc4fa5	0.091948785
7	0xbee5f2b7	-0.4491174

decoder.0.bias f4 [2]
0	0x3dbfeba0	0.09371114
1	0xbec9bed1	-0.39403394

decoder.2.weight f4 [4, 2]
0	0x3d5c5fe2	0.05380238
1	0xbde0321c	-0.109470576
2	0xbeadb91f	-0.339303
3	0xbe9da09f	-0.30786607
4	0xbf1e10e5	-0.6174453
5	0x3e6e9ed1	0.23302771
6	0xbf00ad8a	-0.502648
7	0xbd8979b6	-0.06712668

decoder.2.bias f4 [4]
0	0x3e04d4f3	0.12971859
1	0x3e875aee	0.2643656
2	0x3ea97675	0.33098188
3	0xbeb5b77e	-0.35491556
